models/checkpoint/nlp_model.pth (torch, 6631 bytes, 6 tensors)

linear1.weight f4 [16, 35]
0.2762407 -0.8884927 0.7579638 -0.28790408 -0.8793644 -0.01991062 1.0139909 -0.113761894
-0.17742713 -0.32186586 0.70282906 0.4713977 0.054983124 0.90522027 0.037186965 -0.52709275
0.109086424 0.11647671 -0.01945428 0.05928661 -0.15073219 -0.19850713 -0.005378788 0.4317264
0.012295917 0.66973907 -0.04136298 0.65860975 -0.4845165 -0.11061773 -0.14666766 -0.5152406
1.1586145 -0.7485722 0.2564849 0.07916287 -0.76596373 0.4547847 -0.21771608 -0.7551538
-0.026143895 0.83527184 -0.20410833 -0.075076334 -0.25442097 0.48647675 0.5971206 -0.015142411
0.65150696 -0.008186609 -0.2591121 0.12400007 0.13468763 0.20434225 -0.14384593 -0.2377794
-0.085338525 -0.009767005 0.37910807 -0.08725811 0.46358815 -0.18928634 0.46457776 -0.2536697
0.08214042 -0.120625295 -0.3374446 0.77402747 -0.59578663 0.22707605 1.170389 0.2108293
0.3834702 -0.21806009 0.3346719 0.14007822 -0.031090355 0.024961429 -0.113290876 -0.13384086
0.4726798 0.4136698 0.11530095 0.11721761 1.1308293 0.17214401 0.17723165 0.29487947
0.31120726 -0.19812417 0.296007 0.05736437 0.56886774 0.3832008 -0.0760166 0.8826893
0.14938945 0.58115643 -0.29000083 0.035191465 -0.08312846 -0.21766154 0.8953612 0.3634471
0.18536986 0.7370429 0.41340363 -0.6157689 -0.0046361336 0.42634028 0.04828961 -1.33726
0.033070475 -0.11594947 0.26423782 1.0533022 0.9054343 -0.007817611 -0.26243904 0.6606417
0.7507786 0.37525925 -0.09235071 -0.11120799 0.17200069 0.49061674 0.41098937 0.7825748
-0.37267384 0.29977435 0.32246867 -0.041355204 -0.3258988 -0.39967734 0.121661894 0.22561355
-0.51623523 -0.36753565 1.1717741 0.19380887 0.99321914 -0.23947573 -0.31596506 0.01176698
-0.085073315 0.111789875 -0.7580467 -0.011466955 -0.17831257 -0.06845131 0.33760405 0.50322825
-0.10610354 0.25159785 0.5601269 0.4799095 0.16407917 0.11713218 -0.07638486 0.0315579
0.36755788 0.23795106 0.5281225 -0.43006295 0.1128828 0.4629195 0.0035457816 -0.261055
-0.0683165 0.20624538 -0.038711682 -0.10620275 -0.15950456 -0.23026675 0.14158516 0.12095637
0.07905378 0.55155534 0.22528808 0.077457614 0.2770807 -0.42995194 0.608222 0.35674807
0.46003288 0.08589103 0.097192295 0.08008872 0.37363747 0.5566238 0.7357219 -0.0716248
0.2143931 0.13826069 -0.13959152 0.18919511 0.37236243 0.4763595 0.649544 0.13228512
0.95352226 0.7426143 0.782571 1.0807834 0.92007846 0.014471369 0.7291069 0.9706818
0.90084416 0.3750549 -0.4407847 0.9721276 -0.23707065 0.31942153 0.7125596 0.02975959
1.06759 0.70769614 0.4255994 -0.06061986 0.22606963 0.4295975 -0.044367887 1.2585286
0.12519841 0.14328179 -0.01050845 -0.031100024 -0.007311844 -0.2670346 0.2980452 0.31535202
0.76599824 -0.41255155 -0.17339525 0.50104165 0.57145476 -0.7155422 1.1400305 0.9089285
-0.088667266 1.0235343 0.49846 0.73773575 0.21558473 0.26588225 0.2813305 -0.3739381
-0.07955894 0.32480624 -0.0774355 -0.74728274 0.030997302 -0.24760707 0.35878664 0.85195
00000000: 6c6f 8d3e 4274 63bf ea09 423f 2a68 93be
00000010: 061e 61bf 991b a3bc 74ca 813f fffb e8bd
00000020: 75af 35be 9acb a4be 9bec 333f 0a5b f13e
00000030: fc35 613d 84bc 673f 5c51 183d 8def 06bf
00000040: b468 df3d 578b ee3d 955e 9fbc 84d6 723d
00000050: 8a59 1abe 7445 4bbe 8b40 b0bb 3e0b dd3e
00000060: d074 493c 0574 2b3f 3a6c 29bd a69a 283f
00000070: 8c12 f8be 8c8b e2bd 0c30 16be cfe6 03bf
00000080: 7b4d 943f 6da2 3fbf fd51 833e 2520 a23d
00000090: 3316 44bf 8ad9 e83e f7f0 5ebe c251 41bf
000000a0: b92b d6bc 60d4 553f c601 51be 9fc1 99bd
000000b0: 7743 82be 7b13 f93e e5dc 183f e017 78bc
000000c0: 29c9 263f 2021 06bc 57aa 84be c0f3 fd3d
000000d0: 8eeb 093e 183f 513e 594c 13be 717c 73be
000000e0: f7c5 aebd ca05 20bc 741a c23e 61b4 b2bd
000000f0: 6d5b ed3e 47d4 41be 23dd ed3e ffe0 81be
00000100: 3d39 a83d 650a f7bd 8ac5 acbe aa26 463f
00000110: 7985 18bf a086 683e 4fcf 953f a3e3 573e
00000120: 3556 c43e 254b 5fbe 1e5a ab3e aa70 0f3e
00000130: 33b1 febc e97b cc3c 0c05 e8bd 940d 09be
00000140: 1603 f23e 87cc d33e e822 ec3d c90f f03d
00000150: 04bf 903f 8546 303e 377c 353e 71fa 963e
00000160: 8f56 9f3e 10e1 4abe 3b8e 973e e7f6 6a3d
00000170: 51a1 113f e532 c43e 97ae 9bbd edf7 613f
00000180: 8cf9 183e abc6 143f fd7a 94be ed24 103d
00000190: 413f aabd abe2 5ebe 6436 653f bd15 ba3e
000001a0: 99d1 3d3e d8ae 3c3f a4a9 d33e 08a3 1dbf
000001b0: b5ea 97bb 4649 da3e 53cb 453d 562b abbf
000001c0: e874 073d ea76 edbd 2e4a 873e 9bd2 863f
000001d0: 8bca 673f 7015 00bc 695e 86be d01f 293f
000001e0: 0733 403f fb21 c03e 5e22 bdbd 04c1 e3bd
000001f0: f320 303e 1e32 fb3e 336d d23e d256 483f
00000200: 1bcf bebe 067c 993e 9d1a a53e 1364 29bd
00000210: 35dc a6be 82a2 ccbe df29 f93d 3d07 673e
00000220: fe27 04bf a22d bcbe b2fc 953f d575 463e
00000230: 9c43 7e3f 2039 75be 2cc6 a1be 4bca 403c
00000240: eb3a aebd 17f2 e43d 590f 42bf e5df 3bbc
00000250: 9297 36be 3330 8cbd 70da ac3e 91d3 003f
00000260: d04c d9bd 6fd1 803e 7a64 0f3f b3b6 f53e
00000270: 5f04 283e ffe2 ef3d aa6f 9cbd db42 013d
00000280: 8c30 bc3e 71a9 733e 0933 073f 3631 dcbe
00000290: 192f e73d c903 ed3e 5860 683b 00a9 85be
000002a0: 85e9 8bbd fd31 533e 2490 1ebd d480 d9bd
000002b0: 2a55 23be 0ccb 6bbe b3fb 103e f9b7 f73d
000002c0: f3e6 a13d bb32 0d3f ebb1 663e 19a2 9e3d
000002d0: 86dd 8d3e a922 dcbe 70b4 1b3f afa7 b63e
000002e0: 6e89 eb3e a3e7 af3d c10c c73d 8e05 a43d
000002f0: 694d bf3e e67e 0e3f 4558 3c3f 06b0 92bd
00000300: dd89 5b3e 3694 0d3e 14f1 0ebe 5dbc 413e
00000310: 4aa6 be3e 64e5 f33e 8448 263f c075 073e
00000320: 091a 743f f91b 3e3f 9356 483f 1c57 8a3f
00000330: 438a 6b3f 5219 6d3c c0a6 3a3f 9a7e 783f
00000340: b99d 663f 3207 c03e 88ae e1be 5bdd 783f
00000350: a6c2 72be 388b a33e 4e6a 363f 62ca f33c
00000360: caa6 883f 932b 353f 2ae8 d93e 884c 78bd
00000370: cc7e 673e 34f4 db3e 1abb 35bd 7717 a13f
00000380: 0334 003e 76b8 123e a22b 2cbc 7ac5 febc
00000390: 3198 efbb c2b8 88be 6199 983e d275 a13e
000003a0: 7618 443f f539 d3be 868e 31be 4444 003f
000003b0: dc4a 123f c62d 37bf 85ec 913f 8aaf 683f
000003c0: 2f97 b5bd 2c03 833f 2636 ff3e 40dc 3c3f
000003d0: 3ec2 5c3e b821 883e 8d0a 903e d174 bfbe
000003e0: ccef a2bd 014d a63e 8196 9ebd ec4d 3fbf
000003f0: 0eee fd3c b58c 7dbe e2b2 b73e 6519 5a3f

linear1.bias f4 [16]
0.9541018 0.54575 1.0434746 1.5558082 0.74036026 1.570928 1.5855292 1.1325413
1.0106106 0.4740448 1.1779661 0.43450642 0.76306605 1.3194566 1.1580648 0.90278715
00000000: 0440 743f 46b6 0b3f 9390 853f b924 c73f
00000010: 4088 3d3f 2b14 c93f 9ff2 ca3f 1df7 903f
00000020: b05b 813f 00b6 f23e 98c7 963f a077 de3e
00000030: 4c58 433f f4e3 a83f 783b 943f 0f1d 673f

linear2.weight f4 [16, 16]
2.7130165 1.334854 1.4360412 0.35249755 0.3912413 1.3686262 1.7585522 0.22382481
0.4235936 1.5864111 0.5590867 1.5725812 0.93501395 1.7520841 2.0538912 1.0615257
-0.78076786 -0.34102294 -0.22646114 0.2505322 -0.8501815 -0.26532003 0.93879735 0.43394768
-1.0171468 -0.72826475 -0.43152955 0.6566154 0.8970813 -0.32987034 -0.122221075 -0.036231235
0.17498311 -0.15069114 0.6585554 1.05853 1.1262544 1.314041 0.7354103 0.8839944
1.9101578 1.2310325 1.2687563 -0.3533289 -0.05166194 0.100624405 0.59336764 0.75744575
-0.61999226 -0.7208939 -0.035188507 0.7337151 -0.19389072 1.4459194 0.6138643 0.74038565
1.7042606 0.45557463 0.03714328 -0.4907825 0.3937176 0.67746997 0.3137485 0.6866372
2.060684 1.4907032 1.3142312 0.81202656 0.89468235 -0.010711783 0.43773693 0.17252952
-0.3372139 -0.015943088 0.71827626 1.4202967 0.92192775 1.4665895 0.619283 0.015183377
2.2939167 1.419078 1.166148 0.5995515 0.3457479 0.3305278 0.8784692 0.19014813
-0.052961964 1.26652 0.803104 1.488557 0.88535106 1.7412086 1.1994661 0.2529636
-0.007981434 -0.15904604 -0.2215962 0.62817764 -0.27694282 0.7232563 1.3929305 0.21492791
0.04301585 0.13387421 0.14956737 -0.2350509 0.28738397 1.1583514 1.380149 1.4817619
0.31393173 -0.14171267 0.76417094 1.7319336 1.6000453 -0.03267073 0.5027863 1.1659982
0.072849646 0.04940005 1.658094 0.11852406 1.7014204 0.63071966 -0.28249142 -0.24375114
0.11939666 0.31250277 0.9892127 0.731693 0.53773034 0.89611435 0.16973704 0.6895507
1.1821003 1.715373 0.7292558 0.01146754 -0.34370145 -0.99122465 -1.5869706 -0.40856722
0.7154377 0.51135695 0.49215013 0.9482024 1.1954988 0.6921562 0.40491092 0.9155965
0.4742638 1.5849205 1.5171561 -0.24214652 -0.24234107 0.16101894 0.5107881 1.204289
-0.49651778 -0.36963227 -0.21275702 0.38694862 -0.18501027 1.008924 1.1885294 0.6428616
0.40256938 0.5926907 -0.1503619 -0.2168278 -0.22853851 1.1733211 1.0606111 1.724073
1.0941914 0.74675477 1.0242988 1.16271 0.95802635 0.84727895 0.15684688 0.74101293
0.84030646 0.21375681 0.7605805 0.628096 1.2206228 -0.06230653 -0.419736 -0.6777837
0.64785147 0.3960737 0.45173442 0.103510275 -0.40991423 1.1284381 0.86494255 0.2164374
1.2103305 0.21554391 -0.15515919 0.6704301 0.0071748067 0.6628008 1.2431732 0.5382766
-0.63710344 -0.076676145 0.035398196 0.22918196 -0.83043146 -0.21086922 0.5494522 0.30679986
-0.8247672 -0.15960637 -0.48317817 0.37512055 0.56002337 -0.39949778 -0.15167513 -0.24441856
-1.6281596 -0.7554 0.5158563 1.0120538 0.9352706 0.8621479 0.5660761 1.0276462
1.3674694 2.1391146 0.7257968 -0.7470758 -0.07087068 -0.8520154 -0.5424227 -0.03529226
-0.022323042 0.016023844 0.06395993 -0.24168074 -0.16866025 0.098041415 -0.014475018 -0.2329166
-0.21789896 0.108558446 0.017780513 0.052832693 0.18764085 -0.11921921 0.057546705 -0.15997523
00000000: 10a2 2d40 7fdc aa3f 33d0 b73f 8f7a b43e
00000010: c850 c83e 252f af3f 3d18 e13f 5532 653e
00000020: 43e1 d83e 850f cb3f 4e20 0f3f 574a c93f
00000030: 135d 6f3f 4b44 e03f f472 0340 13e0 873f
00000040: 67e0 47bf 8f9a aebe 6ee5 67be c245 803e
00000050: 7fa5 59bf 07d8 87be 0655 703f 642e de3e
00000060: de31 82bf 8f6f 3abf 71f1 dcbe f217 283f
00000070: 1fa7 653f c4e4 a8be 0b4f fabd 3467 14bd
00000080: c62e 333e c74e 1abe 1697 283f e97d 873f
00000090: 1b29 903f 7f32 a83f d943 3c3f 754d 623f
000000a0: 0d80 f43f 7992 9d3f 9b66 a23f 87e7 b4be
000000b0: 789b 53bd 2b14 ce3d f1e6 173f f7e7 413f
000000c0: d0b7 1ebf 818c 38bf d321 10bd c1d4 3b3f
000000d0: 4a8b 46be e313 b93f 3626 1d3f ea89 3d3f
000000e0: 3625 da3f 1441 e93e 8d23 183d d847 fbbe
000000f0: 5a95 c93e ac6e 2d3f a5a3 a03e 75c7 2f3f
00000100: 3fe2 0340 5dcf be3f ba38 a83f f9e0 4f3f
00000110: e709 653f 7980 2fbc 0e1f e03e 94ab 303e
00000120: 4da7 acbe 149b 82bc f4e0 373f 48cc b53f
00000130: 7503 6c3f 34b9 bb3f 5589 1e3f b3c3 783c
00000140: 88cf 1240 59a4 b53f 5644 953f 357c 193f
00000150: de05 b13e f13a a93e 5ce3 603f 31b6 423e
00000160: a5ee 58bd 541d a23f 3998 4d3f 0989 be3f
00000170: 5ea6 623f ecdf de3f 1b88 993f 7284 813e
00000180: 90c4 02bc f7dc 22be 1dea 62be 40d0 203f
00000190: 73cb 8dbe 5327 393f 8c4b b23f 1016 5c3e
000001a0: 6331 303d 5216 093e 3028 193e 2fb1 70be
000001b0: fe23 933e dc44 943f b9a8 b03f 60aa bd3f
000001c0: a9bb a03e 201d 11be b5a0 433f 00b0 dd3f
000001d0: 49ce cc3f bed1 05bd 9ab6 003f 6e3f 953f
000001e0: 3232 953d b557 4a3d 6d3c d43f bebc f23d
000001f0: 25c8 d93f d876 213f b7a2 90be e699 79be
00000200: 3c86 f43d 5d00 a03e 0b3d 7d3f 3c50 3b3f
00000210: b2a8 093f c067 653f 8ccf 2d3e 6586 303f
00000220: 104f 973f 5891 db3f 82b0 3a3f 59e2 3b3c
00000230: a3f9 afbe e6c0 7dbf da21 cbbf b92f d1be
00000240: ed26 373f 4ae8 023f 1afb fb3e 64bd 723f
00000250: 1b06 993f 2631 313f 7c50 cf3e 8864 6a3f
00000260: b4d2 f23e adde ca3f 2c32 c23f 42f5 77be
00000270: 4228 78be 26e2 243e 02c3 023f 2426 9a3f
00000280: 9437 febe 7140 bdbe fadc 59be 211e c63e
00000290: 5573 3dbe 6c24 813f bb21 983f 9492 243f
000002a0: 931d ce3e 94ba 173f 78f8 19be 1b08 5ebe
000002b0: 0006 6abe 632f 963f 1bc2 873f 6dae dc3f
000002c0: 770e 8c3f 522b 3f3f 391c 833f aed3 943f
000002d0: 3741 753f 46e7 583f 789c 203e 06b3 3d3f
000002e0: 531e 573f 11e3 5a3e 67b5 423f e6ca 203f
000002f0: 5e3d 9c3f 2235 7fbd a3e7 d6be 3c83 2dbf
00000300: 98d9 253f 2cca ca3e bc49 e73e 32fd d33d
00000310: 47e0 d1be a970 903f e06c 5d3f c4a1 5d3e
00000320: 1cec 9a3f 8bb7 5c3e 0de2 1ebe 4fa1 2b3f
00000330: a41a eb3b 50ad 293f 4d20 9f3f 7fcc 093f
00000340: 3619 23bf 6208 9dbd b3fd 103d adae 6a3e
00000350: 2897 54bf 1aee 57be e6a8 0c3f df14 9d3e
00000360: f123 53bf da6f 23be 2163 f7be cd0f c03e
00000370: b15d 0f3f f98a ccbe ba50 1bbe dc48 7abe
00000380: 8967 d0bf e561 41bf 290f 043f fb8a 813f
00000390: e56d 6f3f bab5 5c3f 5dea 103f e989 833f
000003a0: 3d09 af3f 41e7 0840 d2cd 393f 5c40 3fbf
000003b0: a624 91bd ae1d 5abf 37dc 0abf 9e8e 10bd
000003c0: d0de b6bc 7044 833c 6cfd 823d 287b 77be
000003d0: 46b5 2cbe f0c9 c83d a028 6dbc b081 6ebe
000003e0: e820 5fbe e453 de3d 70a8 913c 1867 583d
000003f0: ec24 403e 3429 f4bd 18b6 6b3d 8cd0 23be

linear2.bias f4 [16]
0.6424228 -0.23068926 0.6115328 0.634772 0.54787785 0.4108466 0.5943257 0.46790266
-0.037618138 0.42301455 0.39598152 0.36542797 0.44861415 -0.061109778 0.008254577 -0.19611827
00000000: d275 243f ce39 6cbe 6a8d 1c3f 6b80 223f
00000010: b941 0c3f 7c5a d23e bb25 183f f090 ef3e
00000020: 7a15 1abd 5d95 d83e 17be ca3e 6019 bb3e
00000030: c1b0 e53e 3f4e 7abd 353e 073c 3ad3 48be

output.weight f4 [6, 16]
-0.6181047 -0.25728714 -0.03673985 0.011193132 -1.9473116 -1.7583613 0.4186985 -1.6708696
-1.5061241 -0.18939012 0.40688738 -2.295345 0.46309158 -0.67452407 -0.9999462 -0.03151101
-1.6143806 -1.8401338 -0.19973819 -1.3194392 0.43112865 -0.4186965 -1.8137426 0.42284387
-0.32593748 0.20498332 -1.676992 0.34748715 -1.9217421 -0.3206316 -1.8045014 -0.13460645
0.039080705 0.07388616 -1.6627975 -1.6456974 -0.15117924 0.13908792 -1.3048079 -2.1554327
0.7779094 -2.1130755 -1.5939556 0.41017568 0.31766868 -0.53997034 -0.9504765 0.011847585
0.48012367 0.0180217 -2.5075214 -2.346083 0.18029276 0.56024486 0.19134018 -1.71961
-1.9420213 -1.4332871 -0.02904125 -1.7709966 -0.08260341 -0.39110416 -1.2452157 0.11351097
-2.3259597 -2.1911843 0.063119754 0.17290805 -1.1674982 -2.3717268 -0.5319014 0.013705911
0.21622135 -0.01940197 -0.12551267 -0.80363315 -0.66824394 -0.71233386 0.33807635 -0.093619645
-1.0089499 1.9734349 -0.581827 -0.0837466 -0.22027127 -0.5344204 -0.14670506 0.20396172
-2.3927484 -0.7266861 -0.18870342 -0.14996275 -0.45552853 0.7757383 -3.3813863 0.24434838
00000000: 1c3c 1ebf 24bb 83be 867c 16bd 6663 373c
00000010: 8241 f9bf fc11 e1bf a65f d63e 0edf d5bf
00000020: adc8 c0bf 7cef 41be 8b53 d03e efe6 12c0
00000030: 571a ed3e 9cad 2cbf 79fc 7fbf b011 01bd
00000040: 06a4 cebf 8189 ebbf 2b88 4cbe 62e3 a8bf
00000050: e5bc dc3e 635f d6be b828 e8bf fe7e d83e
00000060: 47e1 a6be 26e7 513e ada7 d6bf d6e9 b13e
00000070: a5fb f5bf d329 a4be e7f9 e6bf 46d6 09be
00000080: 1713 203d a151 973d 8cd6 d4bf 36a6 d2bf
00000090: bbce 1abe 106d 0e3e f203 a7bf 9cf2 09c0
000000a0: 1225 473f a13c 07c0 bd06 ccbf 8c02 d23e
000000b0: 78a5 a23e 7f3b 0abf 6e52 73bf 601c 423c
000000c0: c5d2 f53e 3fa2 933c 3b7b 20c0 3926 16c0
000000d0: aa9e 383e 356c 0f3f aeee 433e 2e1c dcbf
000000e0: 2794 f8bf f475 b7bf eae7 edbc 04b0 e2bf
000000f0: fa2b a9bd ce3e c8be 3a63 9fbf 7078 e83d
00000100: 86dc 14c0 5d3c 0cc0 ee44 813d cf0e 313e
00000110: 9570 95bf 5fca 17c0 b12a 08bf c28e 603c
00000120: 2169 5d3e e1f0 9ebc 6586 00be e7ba 4dbf
00000130: 0912 2bbf 835b 36bf 5818 ad3e a8bb bfbd
00000140: 4525 81bf 8499 fc3f 9df2 14bf 5683 abbd
00000150: cb8e 61be c6cf 08bf da39 16be 57db 503e
00000160: ca22 19c0 1a08 3abf 783b 41be d68f 19be
00000170: 093b e9be c996 463f a268 58c0 7636 7a3e

output.bias f4 [6]
-0.19613528 0.09570972 -0.19788446 -0.21590923 0.06897552 -0.20152433
00000000: b0d7 48be 7503 c43d 39a2 4abe 4f17 5dbe
00000010: 0a43 8d3d 655c 4ebe
